weights.pkl (torch, 195487 bytes, 6 tensors)

i2h.weight f4 [128, 203]
0.2457882 0.1933819 0.065039285 -0.034829993 0.005799262 0.07196192 0.054905213 0.03890994
-0.077444516 0.0739794 -0.03016651 0.030935662 -0.00497335 0.0427963 -0.011721891 -0.038090523
0.08390005 0.03155477 -0.00043336762 0.09093765 -0.15169577 -0.019665135 0.011727576 0.012574573
0.15625924 -0.025404567 0.05594123 0.08317446 -0.043154065 0.037221134 0.080521874 0.13469264
0.18629368 -0.039627712 -0.07009615 -0.015548463 -0.08175277 -0.08115686 -0.12193747 0.18912096
0.07618852 0.042695407 0.13491884 0.013992764 0.18557894 -0.054098547 -0.12416838 -0.05402087
0.08765663 -0.036668435 -0.012360037 0.108772874 0.100678846 0.17626995 -0.026110182 0.10430669
0.053098194 -0.038454838 -0.0024688651 0.012230513 0.034162566 -0.008016625 -0.16914792 -0.015876682
0.028438786 0.1149388 -0.005968589 -0.02362456 0.073066644 -0.0941593 -0.098309055 -0.054925136
0.04320466 -0.054669973 -0.03199827 0.003643628 -0.04758987 0.074617475 0.045788296 0.061459817
0.036027342 -0.01923787 0.051788334 -0.025173604 -0.002891379 -0.036994133 -0.042397175 -0.0009835223
-0.03715692 0.035266887 -0.056842554 0.027655236 -0.008507665 -0.00085724617 0.017821781 0.07316253
-0.09614359 -0.038132448 -0.02945231 0.024642775 -0.033160787 0.026543947 -0.021916032 -0.020080067
0.063161984 0.03813124 -0.034399584 0.080883116 -0.06322585 0.04437193 0.037266467 0.06588418
-0.071722575 0.0024648649 -0.021804344 -0.03250515 0.0047701434 -0.06301065 -0.022154871 -0.0531566
-0.018655702 -0.040254425 -0.045722846 0.016312128 -0.054851256 0.064871944 0.016061498 -0.0099493135
0.07857856 0.010827244 0.019005373 0.029464185 0.09397999 -0.072558716 -0.04799139 0.046456154
0.046946336 0.0038712737 0.051770303 0.051106423 -0.02051014 0.022304177 0.017069887 -0.020226825
0.029620886 0.067744866 -0.035402123 -0.005532126 -0.05342927 0.026367769 0.048382528 0.0022636526
0.018727686 -0.039185025 -0.0874351 -0.009327412 0.057762492 -0.07247866 0.0035846217 -0.042211372
0.034788217 -0.012303483 0.07332417 0.03298549 0.061377462 -0.032258295 -0.03590385 0.07757295
-0.025200361 -0.0592656 0.0710103 -0.09081903 -0.05795409 -0.061678406 -0.05889762 -0.0470797
0.0039895913 -0.053339817 -0.08009299 0.0027149061 -0.09064235 -0.106944844 -0.012648464 -0.029414676
0.044230253 -0.030837554 -0.002927591 -0.032974202 -0.08963033 -0.06292667 0.062080406 -0.00789822
-0.07576868 0.04687751 -0.0040289303 0.004414941 0.007853487 -0.04703059 -0.012534032 0.011370352
0.020830493 0.032989092 0.030914927 0.10061496 -0.045142666 0.029206429 0.0077985316 -0.02446743
-0.0075966683 0.07145924 -0.08351472 0.043142814 -0.15685615 0.047392223 -0.04742974 -0.02842219
-0.059890397 0.113653906 -0.01264165 -0.03814322 -0.055878118 -0.109576754 0.103933066 -0.06674142
0.07309571 0.10780936 -0.035677414 -0.055826537 -0.08638212 -0.086546786 0.034563333 -0.022997178
0.09574452 -0.021643264 -0.1555371 -0.026699105 0.0060945097 -0.046096288 0.15550473 -0.016430354
0.018449258 -0.021802362 -0.16374321 -0.017941616 0.0610978 0.09203247 0.03999215 -0.13194944
0.1519157 -0.055819534 0.041649748 -0.12966457 0.01846019 -0.05428348 0.041121256 -0.062003348
00000000: e7af 7b3e e805 463e 5133 853d e5a9 0ebd
00000010: bc07 be3b c560 933d 4ae4 603d 0760 1f3d
00000020: 3b9b 9ebd 8382 973d c21f f7bc c96c fd3c
00000030: 7cf7 a2bb 2c4b 2f3d 2d0d 40bc cf04 1cbd
00000040: cad3 ab3d 933f 013d 9e35 e3b9 853d ba3d
00000050: 2356 1bbe c718 a1bc 0525 403c 9505 4e3c
00000060: 6c02 203e 3d1d d0bc a222 653d 5f57 aa3d
00000070: 51c2 30bd 3075 183d a7e8 a43d deec 093e
00000080: c5c3 3e3e ab50 22bd 928e 8fbd fbbe 7ebc
00000090: ff6d a7bd 9135 a6bd 5aba f9bd eda8 413e
000000a0: ba08 9c3d 61e1 2e3d 2a28 0a3e e841 653c
000000b0: 6808 3e3e 7096 5dbd fe4b febd fd44 5dbd
000000c0: 5285 b33d a431 16bd c181 4abc 50c4 de3d
000000d0: b630 ce3d 1c80 343e 05e5 d5bc bf9e d53d
000000e0: 7e7d 593d d282 1dbd afcc 21bb 7d62 483c
000000f0: 0cee 0b3d 2a58 03bc 1d35 2dbe d10f 82bc
00000100: 75f8 e83c 0965 eb3d 2794 c3bb 4b88 c1bc
00000110: f7a3 953d 97d6 c0bd 4256 c9bd 2ef9 60bd
00000120: 5ff7 303d 9fed 5fbd 9e10 03bd efc9 6e3b
00000130: 98ed 42bd 0cd1 983d 828c 3b3d 4abd 7b3d
00000140: 6891 133d bd98 9dbc 0120 543d e038 cebc
00000150: 4a7d 3dbb 2987 17bd a9a8 2dbd 88e9 80ba
00000160: db31 18bd 0374 103d bdd3 68bd 3c8d e23c
00000170: bc63 0bbc d1b8 60ba fcfe 913c 3dd6 953d
00000180: eee6 c4bd c530 1cbd f945 f1bc a5df c93c
00000190: 9bd3 07bd b172 d93c 4089 b3bc f47e a4bc
000001a0: 125b 813d 812f 1c3d 94e6 0cbd 0ca6 a53d
000001b0: 8e7c 81bd 57bf 353d b9a4 183d 49ee 863d
000001c0: 49e3 92bd 9289 213b 069f b2bc 1f24 05bd
000001d0: dd4e 9c3b ba0b 81bd 227e b5bc bcba 59bd
000001e0: d8d3 98bc d3e1 24bd e147 3bbd 03a1 853c
000001f0: b6ab 60bd 95db 843d 6793 833c 7202 23bc
00000200: cced a03d c164 313c 28b1 9b3c e05e f13c
00000210: 9578 c03d aa99 94bd 9f92 44bd cf48 3e3d
00000220: cd4a 403d 32b5 7d3b 190d 543d f854 513d
00000230: e204 a8bc 40b7 b63c 26d6 8b3c bab2 a5bc
00000240: 80a7 f23c d2bd 8a3d d101 11bd d646 b5bb
00000250: a6d8 5abd 3801 d83c c22c 463d ca59 143b
00000260: ce6a 993c 7a80 20bd 2c11 b3bd 00d2 18bc
00000270: 5d98 6c3d b16f 94bd f9eb 6a3b d5e5 2cbd
00000280: 177e 0e3d 8c94 49bc fc2a 963d cb1b 073d
00000290: ef66 7b3d 4621 04bd ea0f 13bd 91de 9e3d
000002a0: fd70 cebc 7cc0 72bd d96d 913d 54ff b9bd
000002b0: 4561 6dbd 7fa2 7cbd a13e 71bd a5d6 40bd
000002c0: 1ebb 823b da7a 5abd cb07 a4bd 91ec 313b
000002d0: b2a2 b9bd e605 dbbd 813b 4fbc 0cf7 f0bc
000002e0: c82a 353d 0a9f fcbc d4dc 3fbb f50f 07bd
000002f0: 1b90 b7bd b3df 80bd 0648 7e3d 8967 01bc
00000300: 9c2c 9bbd a202 403d 1e05 84bb 36ab 903b
00000310: e9ab 003c 26a3 40bd 8a5b 4dbc b64a 3a3c
00000320: b6a4 aa3c 921f 073d 4d41 fd3c 370f ce3d
00000330: 84e7 38bd 5242 ef3c d38a ff3b eb6f c8bc
00000340: 79ed f8bb 3959 923d c409 abbd 85b6 303d
00000350: e69e 20be 591e 423d b045 42bd a7d5 e8bc
00000360: a24f 75bd 61c3 e83d ec1e 4fbc 113c 1cbd
00000370: 74e0 64bd c769 e0bd dcda d43d baaf 88bd
00000380: 34b3 953d 27cb dc3d 7b22 12bd 5eaa 64bd
00000390: 1ce9 b0bd 713f b1bd 4892 0d3d 9464 bcbc
000003a0: b415 c43d 374d b1bc 1e45 1fbe 15b8 dabc
000003b0: 74b4 c73b 76cf 3cbd a23c 1f3e f398 86bc
000003c0: e622 973c de9a b2bc 4dac 27be 4cfa 92bc
000003d0: b041 7a3d 857b bc3d cfce 233d c11d 07be
000003e0: ca8f 1b3e 06a3 64bd ed98 2a3d cac6 04be
000003f0: d339 973c 5b58 5ebd c36e 283d 39f7 7dbd

i2h.bias f4 [128]
0.6230385 0.1182942 0.0050607678 0.02069074 0.07777187 0.22847725 0.06687481 0.070453934
-0.068005405 0.3649324 -0.33980662 -0.031336274 0.036393296 -0.2212993 0.29439202 -0.11500187
0.16472632 -0.27231142 0.19521616 -0.25944987 0.17918997 0.028262991 -0.08917185 -0.08440026
-0.0500506 0.38947752 -0.12367501 -0.13303138 -0.20998794 -0.06733495 0.16828541 -0.1683562
0.11080863 -0.103721604 -0.067412585 0.035993326 -0.011813672 -0.19947931 -0.011011645 0.03597122
-0.099181 0.003394456 0.1358101 -0.17646122 -0.04035972 -0.34242886 -0.25560018 0.049632378
0.07623672 0.00052620086 -0.4055533 -0.17433353 -0.020671504 0.017010678 0.040364083 0.2680487
-0.009609194 0.3105172 -0.063513726 -0.27675056 -0.45262066 -0.23353021 0.13266705 0.08775886
0.013678157 0.22245015 0.18461065 0.10455969 -0.056759693 0.079926625 0.19492638 -0.06168928
0.07084535 -0.014885692 0.44797787 0.008524521 -0.0848997 0.08577013 0.03860149 0.12735268
0.33633044 0.12228245 0.007147966 0.29718497 -0.03675591 -0.23854966 -0.3016011 -0.028383821
-0.23265022 0.11501732 -0.17018184 -0.35079426 0.02543561 -0.40519112 -0.14184499 0.061675612
0.24351247 0.0022964412 0.2540446 0.14568055 -0.10401963 0.03498795 -0.23927996 0.06822824
0.33569968 -0.06472581 -0.19493064 -0.23138238 -0.396494 -0.14231205 0.009738969 0.093848154
-0.2911542 -0.09896657 -0.1841 0.13135037 -0.28333044 -0.19630435 0.33008835 0.20167191
0.466678 -0.19211146 0.014823516 0.18551576 -0.30461898 -0.26462498 -0.23637612 0.13091879
00000000: 737f 1f3f 3b44 f23d ccd4 a53b a07f a93c
00000010: dc46 9f3d f1f5 693e a9f5 883d 274a 903d
00000020: 6b46 8bbd 6bd8 ba3e 22fb adbe 775a 00bd
00000030: 2311 153d 499c 62be 8dba 963e 1a86 ebbd
00000040: 04ae 283e 676c 8bbe bfe6 473e 9dd6 84be
00000050: 937d 373e ca87 e73c bb9f b6bd 0bda acbd
00000060: dc01 4dbd 9969 c73e 5349 fdbd 6139 08be
00000070: 1407 57be e8e6 89bd 0353 2c3e 9165 2cbe
00000080: a3ef e23d fe6b d4bd 9c0f 8abd bd6d 133d
00000090: 228e 41bc 4e44 4cbe 306a 34bc 8f56 133d
000000a0: 681f cbbd 8675 5e3b ce11 0b3e 40b2 34be
000000b0: 3c50 25bd d652 afbe 07de 82be 524b 4b3d
000000c0: ff21 9c3d bef0 093a afa4 cfbe 7d84 32be
000000d0: 4957 a9bc fa59 8b3c cf54 253d ae3d 893e
000000e0: e16f 1dbc 1cfc 9e3e 7c13 82bd 40b2 8dbe
000000f0: e5bd e7be 8b22 6fbe dfd9 073e ebba b33d
00000100: 591a 603c f9c9 633e 930a 3d3e 6423 d63d
00000110: da7c 68bd 92b0 a33d c89a 473e e6ad 7cbd
00000120: 5e17 913d 1ee3 73bc 5b5d e53e 6faa 0b3c
00000130: e5df adbd 40a8 af3d 991c 1e3d be68 023e
00000140: 8133 ac3e 396f fa3d 7c39 ea3b a128 983e
00000150: 5d8d 16bd 5d46 74be 766b 9abe 3085 e8bc
00000160: dc3b 6ebe 338e eb3d 2644 2ebe 4e9b b3be
00000170: 575e d03c 3675 cfbe d03f 11be 919f 7c3d
00000180: 555b 793e e47f 163b 2212 823e 482d 153e
00000190: 3e08 d5bd 864f 0f3d ce05 75be 3fbb 8b3d
000001a0: d4e0 ab3e f78e 84bd e69b 47be 81ef 6cbe
000001b0: 4301 cbbe 40ba 11be 3290 1f3c 7633 c03d
000001c0: 2a12 95be fcae cabd b684 3cbe b680 063e
000001d0: b010 91be 0204 49be 5701 a93e 1583 4e3e
000001e0: 6bf0 ee3e deb8 44be 55de 723c d8f7 3d3e
000001f0: 05f7 9bbe ed7c 87be 950c 72be 930f 063e

i2o.weight f4 [57, 203]
0.0027379561 0.007656921 0.034842826 -0.061294265 -0.038517304 -0.07678242 -0.017277967 0.051426016
-0.07349847 -0.09357581 0.04275538 0.01808965 0.10191758 0.0083858315 0.15659796 0.037343338
-0.0600549 -0.0019265515 -0.0973746 -0.10353251 0.212141 -0.10015072 -0.07543083 0.06265094
-0.09234813 0.02278992 0.09100558 -0.06753904 -0.035374865 -0.017393596 0.013406533 0.043712404
0.113915354 -0.01694122 -0.01836038 -0.11113905 0.23011422 0.11151187 0.02772151 -0.03416436
0.03662793 0.0326429 0.10923158 -0.0009495864 0.030635018 -0.101051554 0.014051752 -0.05567097
0.07186471 -0.08580569 -0.03041887 0.020116566 0.05636818 0.0057495036 -0.023354 -0.068517275
-0.07930111 -0.07568543 -0.000568884 -0.062180117 -0.0022971062 -0.051397167 0.098651454 0.042799387
0.07470558 0.023706866 0.061346248 -0.03621154 0.069272205 0.059049256 0.03265221 -0.011633281
0.014101908 0.0026814193 -0.0485853 0.1334331 0.047680587 0.07701932 0.06299167 -0.030145042
0.07331944 -0.065654345 -0.022317132 -0.036413647 -0.036383484 -0.00943988 -0.04046662 -0.09822105
0.016490094 0.003284763 0.03715426 -0.0030925404 -0.0028575882 -0.06946614 -0.008489208 -0.032794055
-0.01053794 -0.05510489 -0.05381955 -0.10523346 0.05605095 0.02583568 -0.024550585 0.016959107
-0.095457695 -0.022234375 0.057901487 0.06353224 -0.009437126 0.018882731 -0.06759079 -0.0226474
-0.072680846 0.055542454 -0.05128474 0.03901805 -0.0822597 -0.06724887 -0.017500125 0.020391997
-0.042053677 -0.06529597 0.056738492 0.07037749 -0.030265456 -0.05796941 0.04202068 -0.037939332
-0.014229342 -0.08546977 -0.009738269 -0.055142067 0.0981334 0.0031230021 0.020385012 -0.095438235
-0.052899413 0.044961717 -0.08446033 -0.023046391 0.08059854 0.07517755 0.004202656 0.0507804
-0.021380996 0.022003563 -0.0079504745 -0.0048028864 -0.05604436 0.085745 -0.025143985 0.023211056
-0.07153677 -0.03756037 0.01978259 0.069694236 0.057644352 -0.03994882 -0.04047411 -0.021825332
-0.01930508 -0.030985866 -0.029234977 0.0057736835 -0.08757577 -0.07561137 0.012188145 0.033240482
-0.041078407 -0.034611184 -0.03539758 0.09263533 0.046774227 0.016881866 -0.00089220225 0.023734955
-0.017499235 0.009373336 -0.02843104 -0.014112242 -0.08086817 -0.0018554307 -0.06207732 -0.007080705
0.11128683 0.041962225 -0.05961235 -0.01836773 -0.027507046 -0.08658084 0.11188081 0.021932418
0.008021538 0.06473245 0.015057433 0.08825016 -0.0021374878 -0.03346744 -0.08009092 -0.05380306
-0.1107951 -0.08852858 -0.034942992 -0.06674627 -0.06840747 0.019580768 0.029536972 0.070092455
-0.028217483 0.05735704 0.058972415 -0.060477886 -0.046019163 -0.028579524 -0.026663845 0.040257525
0.02771136 0.07958391 -0.060050696 -0.018343752 0.026831055 0.095427446 0.027587168 -0.06586753
0.023389319 0.07514978 -0.08993942 0.08854346 0.025797583 -0.21066225 -0.032067414 0.010877192
0.09400726 -0.057019964 0.016543647 -0.021669189 0.06635277 -0.06273172 0.062083595 -0.031888418
-0.036070593 0.03284544 -0.03757944 -0.047266144 0.052771933 -0.026498204 0.05322094 0.0555729
-0.060155462 -0.05985431 0.006628896 0.051190466 -0.0139095625 -0.037993662 0.043687105 0.038644165
00000000: 486f 333b e9e6 fa3b 5ab7 0e3d b20f 7bbd
00000010: 52c4 1dbd 1a40 9dbd 868a 8dbc 16a4 523d
00000020: 5e86 96bd ada4 bfbd 4420 2f3d bf30 943c
00000030: 2aba d03d ba64 093c 375b 203e 54f5 183d
00000040: 20fc 75bd 5784 fcba 566c c7bd da08 d4bd
00000050: 7e3b 593e d21b cdbd 7b7b 9abd 234f 803d
00000060: 0421 bdbd edb1 ba3c 2261 ba3d e951 8abd
00000070: 3ce5 10bd 047d 8ebc 13a7 5b3c c70b 333d
00000080: 744c e93d 50c8 8abc 8268 96bc df9c e3bd
00000090: 10a3 6b3e 5660 e43d 3818 e33c eeef 0bbd
000000a0: 2b07 163d 90b4 053d ceb4 df3d aaed 78ba
000000b0: 4af6 fa3c 1ef4 cebd 5239 663c 3e07 64bd
000000c0: ce2d 933d e5ba afbd fe30 f9bc 7fcb a43c
000000d0: 52e2 663d 5566 bc3b e350 bfbc c952 8cbd
000000e0: 9f68 a2bd f600 9bbd 2921 15ba 94b0 7ebd
000000f0: 0c8b 16bb d685 52bd c609 ca3d 694e 2f3d
00000100: 3dff 983d e734 c23c 3446 7b3d 8d52 14bd
00000110: 96de 8d3d a2dd 713d 53be 053d 8499 3ebc
00000120: b00b 673c c0ba 2f3b 6101 47bd b0a2 083e
00000130: b84c 433d 4ebc 9d3d c701 813d bcf2 f6bc
00000140: 8128 963d c975 86bd 6bd2 b6bc 7a26 15bd
00000150: d906 15bd baa9 1abc 54c0 25bd 1e28 c9bd
00000160: 3c16 873c 2e45 573b 112f 183d 38ac 4abb
00000170: 6046 3bbb 4344 8ebd 5216 0bbc 0f53 06bd
00000180: 53a7 2cbc aab5 61bd e371 5cbd a484 d7bd
00000190: ae95 653d 59a5 d33c 4f1e c9bc d3ed 8a3c
000001a0: 537f c3bd dd24 b6bc 1c2a 6d3d 311d 823d
000001b0: 2d9e 1abc f5af 9a3c 0a6d 8abd 0a87 b9bc
000001c0: b2d9 94bd 7c80 633d f30f 52bd 64d1 1f3d
000001d0: c677 a8bd c7b9 89bd 6c5c 8fbc 1e0d a73c
000001e0: 7a40 2cbd e5b9 85bd 9f66 683d 1322 903d
000001f0: 43ef f7bc 5571 6dbd e01d 2c3d 4666 1bbd
00000200: 3022 69bc c60a afbd 438d 1fbc a6dc 61bd
00000210: 2afa c83d 48ab 4c3b 78fe a63c 1f75 c3bd
00000220: 0ead 58bd c729 383d 8af9 acbd c9cb bcbc
00000230: d910 a53d b0f6 993d 6fb6 893b 1cff 4f3d
00000240: 3327 afbc d140 b43c b542 02bc 8861 9dbb
00000250: c58e 65bd 139b af3d c2fa cdbc 1d25 be3c
00000260: df81 92bd e7d8 19bd 190f a23c dabb 8e3d
00000270: 7c1c 6c3d 60a1 23bd 2ec8 25bd 0acb b2bc
00000280: b025 9ebc 12d6 fdbc 317e efbc 2b31 bd3b
00000290: ed5a b3bd 22da 9abd c9b0 473c 2c27 083d
000002a0: d541 28bd 75c4 0dbd 0efd 10bd 98b7 bd3d
000002b0: 5596 3f3d d74b 8a3c aee2 69ba cf6f c23c
000002c0: 8e5a 8fbc 9f92 193c 36e8 e8bc 0837 67bc
000002d0: 369e a5bd ec31 f3ba ca44 7ebd 4205 e8bb
000002e0: 59ea e33d 95e0 2b3d 142c 74bd ec77 96bc
000002f0: 7556 e1bc 4c51 b1bd c421 e53d 9dab b33c
00000300: c56c 033c 7292 843d 74b3 763c 80bc b43d
00000310: 1815 0cbb 2815 09bd b506 a4bd 9960 5cbd
00000320: 8be8 e2bd 794e b5bd 6220 0fbd 45b2 88bd
00000330: 3719 8cbd d967 a03c 85f7 f13c a28c 8f3d
00000340: 5a28 e7bc 37ef 6a3d 0f8d 713d a9b7 77bd
00000350: 977e 3cbd 9b1f eabc 236e dabc 13e5 243d
00000360: ef02 e33c e4fc a23d b8f7 75bd a345 96bc
00000370: cdcc db3c 776f c33d 7cfe e13c 8ee5 86bd
00000380: f59a bf3c 21e8 993d 2932 b8bd 4656 b53d
00000390: 7455 d33c d8b7 57be 1f59 03bd 4036 323c
000003a0: e186 c03d c48d 69bd 8b86 873c 9583 b1bc
000003b0: f6e3 873d 7d79 80bd 5e4b 7e3d 6e9d 02bd
000003c0: c2be 13bd f188 063d e6ec 19bd 259a 41bd
000003d0: 6227 583d c312 d9bc 33fe 593d 69a0 633d
000003e0: 9365 76bd cb29 75bd 3637 d93b 18ad 513d
000003f0: efe4 63bc 3e9f 1bbd 40f1 323d 5849 1e3d

i2o.bias f4 [57]
0.0384209 -0.0038497248 0.16971509 0.11592606 -0.038683187 -0.15889747 0.09296343 -0.19767758
-0.32138133 -0.023221776 0.045586385 -0.012023121 -0.30447182 -0.05669574 0.045107793 -0.027982354
0.04946098 0.15760407 -0.096451275 -0.33307374 -0.32146177 0.23862244 -0.0009140819 0.07174571
-0.22373067 -0.038916066 0.2554433 0.17149755 0.13181727 0.27233618 -0.09697381 0.3348355
0.14903021 0.10032363 0.25178677 -0.032769848 -0.092642404 -0.21716279 0.24639271 -0.26351035
0.16012554 -0.12767036 -0.017024998 -0.28182703 -0.021801744 0.3456707 -0.1251095 -0.18114978
0.2305238 -0.34919012 -0.10339882 0.028912922 0.031756632 -0.06789448 0.28604487 -0.20752342
-0.13666579
00000000: 3c5f 1d3d aa4b 7cbb cbc9 2d3e a46a ed3d
00000010: 4372 1ebd 05b6 22be 9c63 be3d fe6b 4abe
00000020: 188c a4be 983b bebc cab8 3a3d a0fc 44bc
00000030: bbe3 9bbe cb39 68bd f3c2 383d 403b e5bc
00000040: 9997 4a3d f662 213e 3f88 c5bd a488 aabe
00000050: a396 a4be 7159 743e ff9e 6fba 6aef 923d
00000060: a719 65be 7466 1fbd 77c9 823e 0e9d 2f3e
00000070: 1bfb 063e a66f 8b3e 349a c6bd 8f6f ab3e
00000080: 609b 183e 7a76 cd3d 32ea 803e ad39 06bd
00000090: 4dbb bdbd ec5f 5ebe 5f4e 7c3e d4ea 86be
000000a0: f3f7 233e 05bc 02be 0278 8bbc a24b 90be
000000b0: 9299 b2bc c0fb b03e b41c 00be 547f 39be
000000c0: 6e0e 6c3e 0cc9 b2be c3c2 d3bd cbda ec3c
000000d0: 3e13 023d 430c 8bbd 7974 923e 0581 54be
000000e0: 1ef2 0bbe

o2o.weight f4 [57, 185]
0.105942786 0.20770036 -0.14880186 -0.22276294 -0.118342094 -0.11140137 0.20628954 0.24697578
0.11022781 0.28398058 -0.012570281 -0.06248587 0.15105578 -0.2074724 -0.10835238 -0.023855723
0.185177 -0.3655318 0.48020437 -0.048876707 0.19381504 0.235047 -0.12652245 -0.32398725
-0.21292457 0.1857901 0.027854757 0.11060341 0.0005742322 -0.06459036 -0.10034244 -0.009451436
-0.20188949 -0.30474597 0.00198693 -0.011361185 -0.049122524 0.13463707 -0.18038067 0.16395012
0.018361509 -0.013822363 -0.053240746 -0.23902392 0.11702914 -0.013290018 0.0063164514 -0.23803064
0.047068816 -0.09141822 -0.23173498 -0.15591297 0.0060102213 0.07769986 -0.05595494 0.10573705
0.3251153 0.16297366 0.11781852 -0.10073927 -0.09946727 0.14743993 -0.083379745 0.09441709
0.015140514 0.24788652 -0.16696586 0.31427377 0.122911386 -0.0074161408 0.17039198 0.16305858
0.20606495 -0.176893 0.11098838 -0.122366145 -0.20786907 0.32544476 -0.1380248 0.1485436
0.0063315807 0.41212192 -0.052236646 0.12454054 0.04248359 -0.26941016 -0.02592791 -0.03508628
0.048170023 0.008697021 0.1622915 -0.23419882 0.15497367 -0.16297427 -0.5048271 0.03361078
-0.037243042 0.14805701 0.0043694703 -0.110437006 0.171297 0.16093822 -0.17944023 0.27177656
-0.07247446 -0.013497445 -0.05432997 0.11219571 -0.017811067 -0.03748071 0.27046144 0.17754753
-0.12231299 -0.09993757 0.03010045 -0.012348703 -0.33405435 -0.046632867 -0.041703507 0.23939392
0.018189715 -0.19552575 -0.14649773 -0.038797177 -0.04070821 -0.048988406 -0.39885584 0.25907063
-0.03033614 -0.11510658 -0.22195184 -0.4413953 -0.22409318 -0.07506276 -0.37969267 0.13596869
-0.3765462 -0.092062816 0.21903463 0.20538774 -0.09156287 0.10047625 0.165334 -0.19980064
-0.25825635 -0.04944275 -0.0047261138 -0.15654255 -0.039583605 0.1834967 -0.1698037 0.044118594
-0.09408283 0.0738688 -0.13647561 -0.23392984 0.1609294 0.053180434 0.08995574 -0.107906684
-0.11623088 -0.09425559 0.023872286 0.15056399 -0.13773665 0.04104473 -0.122675076 -0.2790647
0.048857328 0.26947972 -0.010236989 -0.21189272 0.1565418 0.18907115 -0.04739581 -0.079467475
0.12827125 -0.13782488 -0.20866334 -0.27247807 -0.17203979 0.45610583 -0.009322337 -0.03674464
0.19409063 0.048879355 0.0005219642 0.13710801 -0.06333024 -0.024945572 0.07090893 0.06711005
-0.07059247 -0.11543093 -0.06889623 0.13235497 0.10631652 0.06226199 0.1801959 0.027603256
-0.17281012 0.017446162 0.029461108 -0.15044656 0.003916076 0.1557629 0.09847291 0.03546314
0.005733197 0.17722398 -0.07869326 0.15309677 0.044251904 0.05495704 0.12084202 -0.0414221
0.22970967 -0.031444535 -0.06342872 0.11972914 0.1625833 0.0036217412 -0.0005458412 -0.09827221
-0.029870361 -0.016274221 0.058726422 -0.14644039 0.07775844 -0.18389797 0.04416272 0.01000383
0.015677247 0.024096554 -0.098172754 -0.14065574 -0.08529951 0.04197034 0.022982866 0.018415555
-0.008377509 -0.09026658 -0.1639279 -0.0918006 0.17673951 0.0110626845 -0.123375826 -0.26192677
0.0149696525 0.013998956 0.067158185 0.17655575 -0.07272915 0.11879259 0.037378043 -0.05987393
00000000: 88f8 d83d 67af 543e 845f 18be f81b 64be
00000010: 575d f2bd 6726 e4bd 913d 533e 38e7 7c3e
00000020: 1ebf e13d e765 913e 94f3 4dbc 2ff1 7fbd
00000030: 5eae 1a3e a573 54be dae7 ddbd 146d c3bc
00000040: 0a9f 3d3e fc26 bbbe 59dd f53e f132 48bd
00000050: 7377 463e 29b0 703e 1a8f 01be a8e1 a5be
00000060: e608 5abe c33f 3e3e a92f e43c 0a84 e23d
00000070: 1288 163a f347 84bd 5680 cdbd 32da 1abc
00000080: 1ebc 4ebe aa07 9cbe 2737 023b 4424 3abc
00000090: b334 49bd 4dde 093e b6b5 38be 8ae2 273e
000000a0: e06a 963c 3177 62bc f812 5abd b0c2 74be
000000b0: f9ac ef3d 60be 59bc 3cfa ce3b 4ebe 73be
000000c0: 3bcb 403d 7a39 bbbd ef4b 6dbe a6a7 1fbe
000000d0: 64f1 c43b 1b21 9f3d 0231 65bd ab8c d83d
000000e0: 8375 a63e 91e2 263e d64a f13d 6450 cebd
000000f0: 7fb5 cbbd 7efa 163e 00c3 aabd bf5d c13d
00000100: eb0f 783c f7d5 7d3e 19f9 2abe 7ee8 a03e
00000110: f7b8 fb3d 1903 f3bb 3c7b 2e3e d4f8 263e
00000120: b102 533e 7023 35be e04d e33d 1a9b fabd
00000130: a1db 54be b2a0 a63e 6056 0dbe d01b 183e
00000140: 2679 cf3b a501 d33e 18f6 55bd 1c0f ff3d
00000150: 4603 2e3d 21f0 89be c566 d4bc a2b6 0fbd
00000160: ee4d 453d f37d 0e3c be2f 263e d1d1 6fbe
00000170: 6bb1 1e3e bae2 26be 593c 01bf 75ab 093d
00000180: 298c 18bd 429c 173e c62d 8f3b cc2c e2bd
00000190: 7b68 2f3e fdcc 243e 2ebf 37be 4c26 8b3e
000001a0: 7d6d 94bd 6324 5dbc 1a89 5ebd ddc6 e53d
000001b0: 84e8 91bc 5f85 19bd ec79 8a3e 05cf 353e
000001c0: 3c7f fabd 12ac ccbd 3895 f63c 3752 4abc
000001d0: 2c09 abbe 1b02 3fbd 4cd1 2abd ae23 753e
000001e0: 9902 953c e737 48be 8003 16be cae9 1ebd
000001f0: a7bd 26bd 11a8 48bd d536 ccbe e8a4 843e
00000200: 7f83 f8bc 00bd ebbd 5847 63be 91fe e1be
00000210: af78 65be 81ba 99bd 1467 c2be 603b 0b3e
00000220: aaca c0be 6e8b bcbd 9d4a 603e 2a51 523e
00000230: 5085 bbbd 7ec6 cd3d 514d 293e 8a98 4cbe
00000240: 2d3a 84be 7b84 4abd 84dd 9abb b14c 20be
00000250: 6b22 22bd 8fe6 3b3e 05e1 2dbe b3b5 343d
00000260: 80ae c0bd 8748 973d 43c0 0bbe 4e8b 6fbe
00000270: adca 243e bad3 593d b73a b83d 2efe dcbd
00000280: 750a eebd 1309 c1bd d08f c33c 722d 1a3e
00000290: d60a 0dbe 851e 283d 123d fbbd 91e1 8ebe
000002a0: 9f1e 483d 3ff9 893e 0bb9 27bc 68fa 58be
000002b0: 7e4c 203e de9b 413e 1c22 42bd d8bf a2bd
000002c0: 8a59 033e f721 0dbe d8ab 55be 3f82 8bbe
000002d0: 332b 30be b486 e93e b7bc 18bc 8c81 16bd
000002e0: b2bf 463e b835 483d 6dd4 083a 0b66 0c3e
000002f0: 49b3 81bd a85a ccbc b338 913d fe70 893d
00000300: c992 90bd 0d67 ecbd 7719 8dbd 1088 073e
00000310: 7abc d93d 6e06 7f3d 4685 383e 3920 e23c
00000320: 23f5 30be 41eb 8e3c 6c58 f13c aa0e 1abe
00000330: 6d52 803b 4f80 1f3e 2aac c93d cc41 113d
00000340: 8bdd bb3b 347a 353e ef29 a1bd 66c5 1c3e
00000350: 7c41 353d a21a 613d 057c f73d 38aa 29bd
00000360: 0339 6b3e fccb 00bd ebe6 81bd 8d34 f53d
00000370: 3d7c 263e bc5a 6d3b c816 0fba f142 c9bd
00000380: b0b2 f4bc 8451 85bc 1e8b 703d 78f4 15be
00000390: d13f 9f3d c04f 3cbe f8e3 343d 1be7 233c
000003a0: 926d 803c 2366 c53c cc0e c9bd 0f08 10be
000003b0: 82b1 aebd 17e9 2b3d 9046 bc3c 38dc 963c
000003c0: d241 09bc afdd b8bd b7dc 27be f401 bcbd
000003d0: 34fb 343e 4340 353c 77ac fcbd 441b 86be
000003e0: 4643 753c e15b 653c 3b8a 893d 08cb 343e
000003f0: 05f3 94bd 8849 f33d b819 193d 5e3e 75bd

o2o.bias f4 [57]
0.5235607 0.07611181 0.04918463 -0.06261763 0.31620523 -0.22369277 0.026745366 0.20021018
0.38590062 -0.061357975 -0.08305903 0.10123253 -0.052212823 0.11116577 0.41764575 -0.18061952
-0.15107206 0.28684035 0.25404152 0.060312808 0.2112388 -0.045109764 -0.060191184 -0.14538075
-0.1302928 -0.09321522 -0.1987288 -0.20275639 -0.28237557 -0.19032033 -0.18303551 -0.22096567
-0.24281532 -0.28155792 -0.2833512 -0.26264244 -0.2837318 -0.25963873 -0.26819488 -0.2980938
-0.18362264 -0.21116823 -0.18640536 -0.20373046 -0.26703578 -0.14953387 -0.2458119 -0.22877507
-0.289733 -0.18546122 -0.21479996 -0.2188137 -0.2151828 -0.2834118 -0.20466478 -0.18029034
0.1397233
00000000: 1308 063f 82e0 9b3d d375 493d ac3d 80bd
00000010: a7e5 a13e b80f 65be 1919 db3c e603 4d3e
00000020: c494 c53e 8052 7bbd da1a aabd 0053 cf3d
00000030: 1ddd 55bd e1aa e33d aad5 d53e 53f4 38be
00000040: a2b2 1abe bddc 923e bb11 823e 900a 773d
00000050: fc4e 583e 04c5 38bd 088b 76bd b1de 14be
00000060: 7a6b 05be 9fe7 bebd 907f 4bbe 5f9f 4fbe
00000070: 8893 90be 55e3 42be a96d 3bbe d344 62be
00000080: 94a4 78be 5c28 90be 6913 91be 1279 86be
00000090: 4b45 91be 5eef 84be d750 89be c09f 98be
000000a0: 9307 3cbe 7c3c 58be 0ce1 3ebe b89e 50be
000000b0: eab8 88be 681f 19be 1db6 7bbe 0344 6abe
000000c0: e257 94be 8ce9 3dbe 85f4 5bbe b310 60be
000000d0: e158 5cbe 5a1b 91be a593 51be 089e 38be
000000e0: a013 0f3e
